…
+    "val_loader = DataLoader(val_dataset, batch_size=BATCH_SIZE, shuffle=False)"
+   ]
+  },
+  {
+   "cell_type": "markdown",
+   "metadata": {},
+   "source": [
+    "### NN Model Definition:\n",
+    "\n",
+    "- Define a CNN with several Conv2D layers, max pooling, dropout, and fully connected layers\n",
+    "- Use PyTorch to define the model"
+   ]
+  },
+  {
+   "cell_type": "code",
+   "execution_count": 2,
+   "metadata": {},
+   "outputs": [
+    {
+     "name": "stdout",
+     "output_type": "stream",
+     "text": [
+      "GemstoneCNN(\n",
+      "  (features): Sequential(\n",
+      "    (0): Conv2d(3, 32, kernel_size=(3, 3), stride=(1, 1), padding=(1, 1))\n",
+      "    (1): BatchNorm2d(32, eps=1e-05, momentum=0.1, affine=True, track_running_stats=True)\n",
+      "    (2): ReLU(inplace=True)\n",
+      "    (3): MaxPool2d(kernel_size=2, stride=2, padding=0, dilation=1, ceil_mode=False)\n",
+      "    (4): Conv2d(32, 64, kernel_size=(3, 3), stride=(1, 1), padding=(1, 1))\n",
+      "    (5): BatchNorm2d(64, eps=1e-05, momentum=0.1, affine=True, track_running_stats=True)\n",
+      "    (6): ReLU(inplace=True)\n",
+      "    (7): MaxPool2d(kernel_size=2, stride=2, padding=0, dilation=1, ceil_mode=False)\n",
+      "    (8): Conv2d(64, 128, kernel_size=(3, 3), stride=(1, 1), padding=(1, 1))\n",
+      "    (9): BatchNorm2d(128, eps=1e-05, momentum=0.1, affine=True, track_running_stats=True)\n",
+      "    (10): ReLU(inplace=True)\n",
+      "    (11): MaxPool2d(kernel_size=2, stride=2, padding=0, dilation=1, ceil_mode=False)\n",
+      "    (12): Conv2d(128, 128, kernel_size=(3, 3), stride=(1, 1), padding=(1, 1))\n",
+      "    (13): BatchNorm2d(128, eps=1e-05, momentum=0.1, affine=True, track_running_stats=True)\n",
+      "    (14): ReLU(inplace=True)\n",
+      "    (15): MaxPool2d(kernel_size=2, stride=2, padding=0, dilation=1, ceil_mode=False)\n",
+      "    (16): Conv2d(128, 128, kernel_size=(3, 3), stride=(1, 1), padding=(1, 1))\n",
+      "    (17): BatchNorm2d(128, eps=1e-05, momentum=0.1, affine=True, track_running_stats=True)\n",
+      "    (18): ReLU(inplace=True)\n",
+      "    (19): MaxPool2d(kernel_size=2, stride=2, padding=0, dilation=1, ceil_mode=False)\n",
+      "  )\n",
+      "  (classifier): Sequential(\n",
+      "    (0): Flatten(start_dim=1, end_dim=-1)\n",
+      "    (1): Linear(in_features=4608, out_features=256, bias=True)\n",
+      "    (2): ReLU(inplace=True)\n",
+      "    (3): Dropout(p=0.5, inplace=False)\n",
+      "    (4): Linear(in_features=256, out_features=40, bias=True)\n",
+      "  )\n",
+      ")\n"
+     ]
+    }
+   ],
+   "source": [
+    "class GemstoneCNN(nn.Module):\n",
+    "    def __init__(self, num_classes):\n",
+    "        super(GemstoneCNN, self).__init__()\n",
+    "        self.features = nn.Sequential(\n",
+    "            # Block 1\n",
+    "            nn.Conv2d(3, 32, kernel_size=3, padding=1),\n",
…
